…
2020-09-19 17:25:17.154179: I tensorflow/core/platform/profile_utils/cpu_utils.cc:104] CPU Frequency: 3593185000 Hz
2020-09-19 17:25:17.154521: I tensorflow/compiler/xla/service/service.cc:168] XLA service 0x5648dd0 initialized for platform Host (this does not guarantee that XLA will be used). Devices:
2020-09-19 17:25:17.154559: I tensorflow/compiler/xla/service/service.cc:176]   StreamExecutor device (0): Host, Default Version
Model: "sequential"
_________________________________________________________________
Layer (type)                 Output Shape              Param #   
=================================================================
dense (Dense)                (None, 1024)              15899648  
_________________________________________________________________
dropout (Dropout)            (None, 1024)              0         
_________________________________________________________________
dense_1 (Dense)              (None, 256)               262400    
_________________________________________________________________
dropout_1 (Dropout)          (None, 256)               0         
_________________________________________________________________
dense_2 (Dense)              (None, 32)                8224      
_________________________________________________________________
dropout_2 (Dropout)          (None, 32)                0         
_________________________________________________________________
dense_3 (Dense)              (None, 16)                528       
_________________________________________________________________
dense_4 (Dense)              (None, 7)                 119       
=================================================================
Total params: 16,170,919
Trainable params: 16,170,919
Non-trainable params: 0
_________________________________________________________________
2020-09-19 17:25:17.658787: W tensorflow/core/framework/cpu_allocator_impl.cc:81] Allocation of 1304184000 exceeds 10% of free system memory.
Epoch 1/10
1313/1313 [==============================] - 53s 40ms/step - loss: 1.6709 - accuracy: 0.3323 - val_loss: 1.1462 - val_accuracy: 0.6845
…
